…
    # Pattern analysis:\\n    # Input: [[8,6], [6,4]]\\n    # Output: 6x6 grid\\n    # The pattern appears to be:\\n    # For 2x2 input, output is 6x6\\n    # Each 2x2 input cell transforms to a 3x3 output block\\n    \\n    # Let's analyze the example:\\n    # Input: [[8,6], [6,4]]\\n    # Output: 6x6 grid\\n    # \\n    # Position (0,0) input 8 -> output positions:\\n    # (0,0): 8, (0,2): 8, (0,4): 8, etc.\\n    \\n    # It looks like each input cell expands to a 3x3 pattern\\n    # The pattern repeats horizontally and vertically\\n    \\n    # Let's examine the output grid:\\n    # Row 0: [8,6,8,6,8,6]  - pattern: 8,6 repeated\\n    # Row 1: [6,4,6,4,6,4]  - pattern: 6,4 repeated\\n    # Row 2: [6,8,6,8,6,8]  - pattern: 6,8 repeated\\n    # Row 3: [4,6,4,6,4,6]  - pattern: 4,6 repeated\\n    # Row 4: [8,6,8,6,8,6]  - pattern: 8,6 repeated\\n    # Row 5: [6,4,6,4,6,4]  - pattern: 6,4 repeated\\n    \\n    # This looks like a 3x3 expansion of each 2x2 input cell\\n    # Let's analyze the pattern more carefully\\n    \\n    # The output seems to be:\\n    # Each input cell (i,j) creates a 3x3 output block\\n    # Starting at position (i*3, j*3)\\n    \\n    # Let's extract the pattern from the example\\n    # We need to see what each input value transforms to\\n   
…
 output seems to be created by taking the input 2x2 grid\\n    # and expanding it with a specific pattern\\n    \\n    # Let me look at positions in the output relative to input:\\n    # Input positions: (0,0)=8, (0,1)=6, (1,0)=6, (1,1)=4\\n    \\n    # Output positions:\\n    # (0,0)=8 - from input (0,0)\\n    # (0,1)=6 - from input (0,1)\\n    # (0,2)=8 - from input (0,0)\\n    # (0,3)=6 - from input (0,1)\\n    # (0,4)=8 - from input (0,0)\\n    # (0,5)=6 - from input (0,1)\\n    \\n    # This suggests a repeating pattern of columns\\n    \\n    # Let's look at row patterns:\\n    # Row 0: [8,6,8,6,8,6] - pattern: 8,6 repeated\\n    # Row 1: [6,4,6,4,6,4] - pattern: 6,4 repeated\\n    # Row 2: [6,8,6,8,6,8] - pattern: 6,8 repeated\\n    # Row 3: [4,6,4,6,4,6] - pattern: 4,6 repeated\\n    \\n    # Notice that row patterns alternate between two patterns\\n    # Pattern A: [8,6,8,6,8,6]\\n    # Pattern B: [6,4,6,4,6,4]\\n    # Pattern C: [6,8,6,8,6,8]\\n    # Pattern D: [4,6,4,6,4,6]\\n    \\n    # These patterns come from the input grid:\\n    # Pattern A: Row 0 of input [8,6] expanded to 6 columns\\n    # Pattern B: Row 1 of input [6,4] expanded to 6 columns\\n    \\n    # But Pattern C and D are different\\n    # Pattern C: [6,8] - this is like row 0 reversed?\\n    # Pattern D: [4,6] - this is like row 1 reversed?\\n    \\n    # Actually, looking more carefully:\\n    # The output seems to be a 3x3 expansion of each 2x2 block\\n    # Let me think differently\\n    \\n    # What if we think of the output as 2x2 blocks of 3x3 patterns?\\n    # Each 2x2 input cell becomes a 3x3 output block\\n    \\n    # Let's extract the transformation pattern\\n    # For input value 8 at (0,0):
…
        "name": "terminalbench__terminalbench_write_file"
      },
      {
        "role": "assistant",
        "content": "",
        "tool_calls": [
          {
            "id": "1eab107be5c149dc9281cce9ddde58fe",
            "type": "function",
            "function": {
              "name": "terminalbench__terminalbench_execute_bash",
              "arguments": "{\"command\": \"cd /tmp && python3 analyze_pattern2.py\"}"
            }
          }
        ]
      },
      {
        "role": "tool",
        "content": "{\"output\": \"Mapping of positions:\\n(input_i, input_j, block_i, block_j) -> value\\n(0,0,0,0) -> 8\\n(0,0,0,1) -> 6\\n(0,0,0,2) -> 8\\n(0,0,1,0) -> 6\\n(0,0,1,1) -> 4\\n(0,0,1,2) -> 6\\n(0,0,2,0) -> 6\\n(0,0,2,1) -> 8\\n(0,0,2,2) -> 6\\n(0,1,0,0) -> 6\\n(0,1,0,1) -> 8\\n(0,1,0,2) -> 6\\n(0,1,1,0) -> 4\\n(0,1,1,1) -> 6\\n(0,1,1,2) -> 4\\n(0,1,2,0) -> 8\\n(0,1,2,1) -> 6\\n(0,1,2,2) -> 8\\n(1,0,0,0) -> 4\\n(1,0,0,1) -> 6\\n(1,0,0,2) -> 4\\n(1,0,1,0) -> 8\\n(1,0,1,1) -> 6\\n(1,0,1,2) -> 8\\n(1,0,2,0) -> 6\\n(1,0,2,1) -> 4\\n(1,0,2,2) -> 6\\n(1,1,0,0) -> 6\\n(1,1,0,1) -> 4\\n(1,1,0,2) -> 6\\n(1,1,1,0) -> 6\\n(1,1,1,1) -> 8\\n(1,1,1,2) -> 6\\n(1,1,2,0) -> 4\\n(1,1,2,1) -> 6\\n(1,1,2,2) -> 4\\n\\n\\nLet me group by input cell:\\n\\nInput cell (0,0) = 8:\\n  [8, 6, 8]\\n  [6, 4, 6]\\n  [6, 8, 6]\\n\\nInput cell (0,1) = 6:\\n  [6, 8, 6]\\n  [4, 6, 4]\\n  [8, 6, 8]\\n\\nInput cell (1,0) = 6:\\n  [4, 6, 4]\\n  [8, 6, 8]\\n  [6, 4, 6]\\n\\nInput cell (1,1) = 4:\\n  [6, 4, 6]\\n  [6, 8, 6]\\n  [4, 6, 4]\\n\\n\\nNow let me look for a pattern in these 3x3 blocks:\\nFor input cell (0,0) = 
…
ed?\\\")\\n\\nprint(\\\"\\\\nActually, [6,8] is NOT row 0 reversed (which would be [6,8]).\\\")\\nprint(\\\"And [4,6] is NOT row 1 reversed (which would be [4,6]).\\\")\\nprint(\\\"Wait, [6,8] IS row 0 reversed!\\\")\\nprint(\\\"And [4,6] IS row 1 reversed!\\\")\\n\\nprint(\\\"\\\\nSo the pattern is:\\\")\\nprint(\\\"Rows 0,4: repeat row 0 of input [8,6]\\\")\\nprint(\\\"Rows 1,5: repeat row 1 of input [6,4]\\\")\\nprint(\\\"Rows 2: repeat row 0 of input reversed [6,8]\\\")\\nprint(\\\"Rows 3: repeat row 1 of input reversed [4,6]\\\")\\n\\nprint(\\\"\\\\nLet me verify:\\\")\\nprint(\\\"Row 0: [8,6,8,6,8,6] - yes, repeats [8,6]\\\")\\nprint(\\\"Row 1: [6,4,6,4,6,4] - yes, repeats [6,4]\\\")\\nprint(\\\"Row 2: [6,8,6,8,6,8] - yes, repeats [6,8]\\\")\\nprint(\\\"Row 3: [4,6,4,6,4,6] - yes, repeats [4,6]\\\")\\nprint(\\\"Row 4: [8,6,8,6,8,6] - yes, repeats [8,6]\\\")\\nprint(\\\"Row 5: [6,4,6,4,6,4] - yes, repeats [6,4]\\\")\\n\\nprint(\\\"\\\\nYES! That's the pattern!\\\")\\nprint(\\\"So the transformation is:\\\")\\nprint(\\\"For a 2x2 input grid, create a 6x6 output grid where:\\\")\\nprint(\\\"  Row i where i % 4 == 0: repeat row 0 of input\\\")\\nprint(\\\"  Row i where i % 4 == 1: repeat row 1 of input\\\")\\nprint(\\\"  Row i where i % 4 == 2: repeat row 0 of input reversed\\\")\\nprint(\\\"  Row i where i % 4 == 3: repeat row 1 of input reversed\\\")\\n\\nprint(\\\"\\\\nLet me write the solution based on this pattern.\\\")\"}"
…
        "reasoning": "",
        "should_continue": true,
        "prompt_tokens": 44048,
        "output_tokens": 53,
        "round_total_tokens": 44101,
        "cumulative_total_tokens": 494695,
        "incremental_tokens": 44101,
        "tools_executed": 1,
        "executions": [
          {
            "tool": "terminalbench__terminalbench_execute_bash",
            "success": true,
            "parameters": {
              "command": "cd /tmp && python3 analyze_pattern2.py"
            },
            "result": "{\"output\": \"Mapping of positions:\\n(input_i, input_j, block_i, block_j) -> value\\n(0,0,0,0) -> 8\\n(0,0,0,1) -> 6\\n(0,0,0,2) -> 8\\n(0,0,1,0) -> 6\\n(0,0,1,1) -> 4\\n(0,0,1,2) -> 6\\n(0,0,2,0) -> 6\\n(0,0,2,1) -> 8\\n(0,0,2,2) -> 6\\n(0,1,0,0) -> 6\\n(0,1,0,1) -> 8\\n(0,1,0,2) -> 6\\n(0,1,1,0) -> 4\\n(0,1,1,1) -> 6\\n(0,1,1,2) -> 4\\n(0,1,2,0) -> 8\\n(0,1,2,1) -> 6\\n(0,1,2,2) -> 8\\n(1,0,0,0) -> 4\\n(1,0,0,1) -> 6\\n(1,0,0,2) -> 4\\n(1,0,1,0) -> 8\\n(1,0,1,1) -> 6\\n(1,0,1,2) -> 8\\n(1,0,2,0) -> 6\\n(1,0,2,1) -> 4\\n(1",
            "planned_layer": null
          }
        ]
      },
      {
        "round_number": 15,
        "reasoning": "",
        "should_continue": true,
        "prompt_tokens": 46092,
        "output_tokens": 2883,
        "round_total_tokens": 48975,
        "cumulative_total_tokens": 543670,
        "incremental_tokens": 48975,
        "tools_executed": 1,
        "executions": [
…
